MantraNet/AnomalyDetectorv4.pt (torch, 521303 bytes, 2 tensors)

conv_lstm.cell_list.0.conv.weight f4 [32, 72, 7, 7]
000000 c9 ed b0 bc c6 1a e9 bc f8 cc e5 bc ba df 78 bc
       -0.02159776 -0.02845515 -0.028051838 -0.015190059
000010 44 cd 8f bd ed 75 9e bc a0 69 41 bc f4 4f 42 bd
       -0.07021573 -0.01934334 -0.011804968 -0.04743953
000020 1f 46 8a bc e7 df 10 bd 61 04 15 bd f7 06 fc bc
       -0.01687914 -0.03536978 -0.03638113 -0.03076504
000030 dc 0f b9 bc 9c 79 3c bd e8 8b 70 bd d9 95 e3 bb
       -0.02259057 -0.046014413 -0.058727175 -0.0069453535
000040 35 70 3f bd df f9 1f bd 40 74 37 bb e0 f3 85 bc
       -0.04673787 -0.039056655 -0.0027992874 -0.01635164
000050 12 96 09 bd c2 86 05 bc 0f 3b 98 bc e8 6d bb bc
       -0.033590384 -0.008149805 -0.018582849 -0.022879556
000060 28 bd a6 bc cf 04 37 bb f2 72 6a bc 58 69 23 3b
       -0.020353869 -0.002792645 -0.014309632 0.0024934616
000070 8e 37 fe bb 94 62 a8 bc f4 d0 c6 bc 20 22 08 bd
       -0.0077580875 -0.020554818 -0.024269558 -0.03323567
000080 7b 66 9f bc 70 1a 23 bd 04 a6 03 bd ca 9d 99 3d
       -0.019458046 -0.039820135 -0.032140747 0.07500799
000090 b6 13 37 3d f8 b9 1d bb 44 1b 2e 3d 9f 69 42 3c
       0.044696532 -0.0024067145 0.04250647 0.011866002
0000a0 b5 d3 2e 3d 3d 24 d0 3c bb 33 f1 3d 42 57 02 3e
       0.04268237 0.025407905 0.11777445 0.12728599
0000b0 2f 4b ec 3d 73 e9 d8 3d 77 28 06 3e ed e7 18 3e
       0.11537778 0.10591402 0.13101374 0.14932223
0000c0 f4 5d f0 3d af 72 c7 bc 53 96 04 3d 68 ea 03 bd
       0.1173667 -0.024346678 0.032369923 -0.03220597
0000d0 d6 ef 41 3b 3a d8 ad 3c 23 25 80 b8 00 00 94 3b
       0.0029592416 0.021221269 -6.110433e-05 0.0045166016
0000e0 03 44 ac bc f4 1c 9a 3c 3f e1 c1 bb 99 b3 54 b9
       -0.021028524 0.018812634 -0.005916744 -0.00020284801
0000f0 e6 c9 d2 3c 2d 82 98 3c 3f 84 db 3c 75 a6 09 3d
       0.025731038 0.01861676 0.026796458 0.03360601
000100 2d 04 78 bc 7e 4f 40 3d ea 21 05 3d 15 c6 63 bb
       -0.015137714 0.04695081 0.032503046 -0.0034755517
000110 65 28 8c 3c 96 d8 68 bc 91 b5 ac bc 52 5c bd 3c
       0.017109105 -0.014211794 -0.021082671 0.02311531
000120 47 0b 4b 3d ba 83 39 3d eb 3b 5c 3d 9c a2 6b 3d
       0.0495713 0.04529164 0.05376808 0.057528123
000130 73 28 5b 3d 51 29 dd 3c c0 0f 32 3d a7 13 1f bc
       0.053505372 0.02699724 0.04347205 -0.009709275
000140 5c 16 02 bc dc 62 03 3d 2c 2a 3e bc 20 35 8a bc
       -0.007939901 0.0320767 -0.011606734 -0.016871035
000150 0f 13 9d 3d 99 7b 23 3d 23 c7 83 3d c7 74 7c 3c
       0.07669651 0.039912794 0.06434467 0.015408701
000160 82 a7 cb 3c 5e 0f a3 3d 46 2d 3f 3d 5f 3b 02 3e
       0.024860147 0.079619154 0.046674035 0.12717961
000170 39 f2 d3 3d a8 f7 e4 3d 29 8c 72 3d 43 fa ca 3d
       0.10348935 0.11180049 0.0592157 0.09911015
000180 fa 4f b7 3d f6 3f d0 3d 38 4f e8 3c b9 de 63 3b
       0.08950801 0.101684496 0.028358087 0.0034770204
000190 f1 92 81 3c 80 01 0f 3d c7 3b 5a bc a0 2e 24 bd
       0.015817137 0.03491354 -0.013319916 -0.040083528
0001a0 fc fe 3e bc 06 cb 3a 3c ab fb 63 3b a0 8c 50 bc
       -0.011657473 0.011400944 0.0034787457 -0.01272884
0001b0 f8 2e 36 3c 66 37 10 bd 31 19 2a bd c0 2a 82 3c
       0.011119597 -0.035209082 -0.04152793 0.015889525
0001c0 f1 73 5c bc 90 c6 0c 3d 35 f7 07 bc b9 05 b1 3c
       -0.013455377 0.03436905 -0.008298685 0.021609174
0001d0 5b 94 b1 3b aa 32 ab 3c c1 25 f8 bb 29 78 36 bc
       0.0054192967 0.020898182 -0.00757286 -0.011137047
0001e0 9b 25 92 3c fe 0d 0a 3c f5 49 dc 3c 3d f2 d3 bc
       0.017840197 0.008426188 0.026890734 -0.025872344
0001f0 11 05 76 bc 51 dd eb 3a 00 39 6d bc c2 bd d6 3c
       -0.015015856 0.0017995035 -0.014478922 0.02621353
000200 19 0a 70 bc 8b 8c 81 bc 2b a6 c9 ba 76 04 9a 3c
       -0.014650845 -0.015814086 -0.0015384605 0.018800955
000210 a8 17 14 bc f4 38 bf 3d 07 24 55 3d 69 6b 10 3d
       -0.009038843 0.09337035 0.05203631 0.035258684
000220 93 31 e2 3c 93 0f 7a 3d 9c ea 53 3d eb 79 b2 3d
       0.02761153 0.06105001 0.051737413 0.0871466
000230 c8 2d 87 3d 50 76 f6 3d 67 8a 84 3d 70 8d ec 3d
       0.06600529 0.12034285 0.06471711 0.115504146
000240 0f 05 ef 3d bd 75 82 3d ed b2 bb 3d 8e 17 0f 3d
       0.11670887 0.06370113 0.09164987 0.034934573
000250 b8 ca 10 3d e7 a2 01 bc 31 ed 85 3c 6c 3c 33 3d
       0.035349578 -0.007912374 0.016348453 0.043758795
000260 8b 76 b2 3c 11 db 6d 3c 75 cf 5a 3c f6 33 87 bc
       0.021785041 0.0145175615 0.013355126 -0.01650427
000270 c6 2a ca bb 03 94 14 3d 6d 59 42 3d 06 61 00 bb
       -0.00616965 0.036273967 0.047448564 -0.001958908
000280 1b c3 11 3d f7 50 af bc 7e 21 53 3c ec 5d 38 bd
       0.035586458 -0.021400912 0.012886403 -0.045011446
000290 f6 14 ac bb 25 8c 09 bd 98 47 00 bd 15 d3 0a 3d
       -0.005251522 -0.033580918 -0.031318277 0.03389271
0002a0 d3 a5 06 bd d3 5d 4c bd 6a 49 74 bc e6 fc 47 bc
       -0.032872986 -0.049894165 -0.014910081 -0.012206292
0002b0 79 98 9a bb 3c 8a 8d 3b 14 cc af bc fa e5 ce 3c
       -0.004717883 0.0043194573 -0.021459617 0.025256146
0002c0 ca 6f 40 bb f8 d8 c7 bb 4e 0a c0 3c b3 df a9 bc
       -0.0029363506 -0.0060988627 0.023442414 -0.02073655
0002d0 e0 0d 4c bc 7f 04 cb 3b 1b 06 bd 3d c6 87 94 3d
       -0.01245448 0.0061956043 0.0922968 0.07252459
0002e0 48 72 a1 3d ea 31 da 3c f9 11 54 3d 23 a4 82 3d
       0.078831255 0.026635129 0.051774953 0.06378963
0002f0 d8 eb 50 3d 34 51 8e 3d 31 6d ec 3d 91 06 df 3d
       0.051006168 0.06949082 0.11544264 0.10889924
000300 ca a6 8f 3d 3c d0 ce 3d b7 73 a2 3d d3 da 80 3d
       0.07014234 0.10098311 0.07932227 0.062917374
000310 c9 65 12 bc 70 4f a8 3c 74 fb 40 3d ed 39 02 3d
       -0.0089354 0.020545691 0.047114804 0.031793524
000320 f8 25 7f 3c b5 5c a9 bc 0b 20 2b 3b 5c 41 ff 3c
       0.015573017 -0.020674089 0.0026111628 0.031159095
000330 42 26 69 3c 5f 31 b9 3b 08 9c 26 bc 69 66 24 3d
       0.014230313 0.0056516374 -0.010169037 0.04013673
000340 94 8f c5 bb 3b 64 08 bc 7c fa 67 3c 6b a9 a1 3c
       -0.0060290787 -0.008324678 0.014158841 0.019734105
000350 b5 74 d7 bc 6e e0 a8 3b 44 9f 09 bc 93 58 19 bc
       -0.026300767 0.005153707 -0.008399788 -0.009359497
000360 4f c7 08 3b 46 e0 8e 3c 0a 42 86 bc fb 6b 38 bc
       0.002087075 0.017440926 -0.016388912 -0.011256213
000370 ff 19 1f 3d 4e 37 51 bc 9f f1 06 3d e8 57 d1 bc
       0.03884315 -0.012769533 0.03294527 -0.025554612
000380 41 5d 64 3c 1f 1b dd 3a d5 e4 0a 3d 96 89 1e 3d
       0.013938249 0.0016869045 0.033909637 0.03870543
000390 2e 5d 6a bb 90 7a 51 3d 06 15 4c 3c 22 1b 9b 3d
       -0.0035761106 0.051142275 0.012456184 0.075735345
0003a0 b1 30 f8 3d ac bb cb 3d 1d 02 a3 3d 34 2a eb 3d
       0.12118662 0.09947905 0.079593875 0.11482659
0003b0 53 5f da 3d 62 89 92 3d f4 c4 bd 3d 78 0c c1 3d
       0.10662713 0.0715511 0.092660815 0.09426206
0003c0 0c 8a 01 3e ed e8 d7 3d e1 d9 ef 3d f9 a9 f0 3d
       0.12650317 0.10542474 0.11711479 0.1175117
0003d0 62 b1 b4 3d f2 ca 11 3d 27 b3 93 3a 8d 55 cd 3c
       0.088228956 0.035593934 0.0011268602 0.025065208
0003e0 3d e7 00 3c f8 41 2a 3a 37 ec 87 ba 43 36 3b 3d
       0.0078676315 0.00064948155 -0.001037008 0.045706045
0003f0 c0 e3 da 3b fc 67 e6 3c 0f e1 8b 3c ef c4 d2 bb
       0.006679982 0.028125755 0.01707509 -0.0064321677

conv_lstm.cell_list.0.conv.bias f4 [32]
000000 ab ea 35 3d 6d da 1f 3e e8 b6 7f 3c 8a 31 f9 3c
       0.04441325 0.15610667 0.015607573 0.03041913
000010 8d d3 8b 3e 61 a7 5c bd ef 3b 90 bc 02 8b 9d 3a
       0.27309838 -0.053870562 -0.017606704 0.0012019577
000020 fa d6 6c 3f 26 4f 85 3f 8f 26 80 3f 18 bf 79 3f
       0.9251553 1.0414779 1.0011767 0.9755721
000030 59 30 63 3f 90 cc 7a 3f 0c 9b 79 3f ce c2 72 3f
       0.8874565 0.9796839 0.9750221 0.948285
000040 0e 61 57 3c b7 ef 48 bd 56 23 17 3d 1a 82 0a be
       0.013145698 -0.049056735 0.036898933 -0.13526192
000050 e6 4b 9c bc 63 e5 85 3c 6f e8 a8 bb cd 80 af 3d
       -0.01907916 0.016344732 -0.0051546614 0.08569489
000060 74 6b bf 3d 90 64 e2 3d f1 43 c4 3c ed 3e 4f bd
       0.09346667 0.11054337 0.023958178 -0.05059712
000070 8a 16 a5 3e 2a 10 b3 3c ca 3c c5 3c 1d 8a a9 bc
       0.32243758 0.021858294 0.024076838 -0.02069574
